binaryclassificationV2/binaryclassificationV2.pt (torch, 3358 bytes, 5 tensors)

layer_one.weight f4 [10, 2]
-0.2018152 -1.4285327 -1.8598527 2.3359807 -0.28297502 0.18736881 -0.24534196 0.057460427
3.052195 -0.47089753 -0.6127785 0.28065264 0.5923548 0.16813412 0.6545618 2.7864919
-0.1594344 1.9003069 -2.3569481 -1.4638993
00000000: a5a8 4ebe 29da b6bf a70f eebf b580 1540
00000010: 1ae2 90be 9cdd 3f3e ec3a 7bbe a05b 6b3d
00000020: 2a57 4340 7b19 f1be 0ddf 1cbf b4b1 8f3e
00000030: 90a4 173f 5a2b 2c3e 5d91 273f e255 3240
00000040: c542 23be 423d f33f 3dd8 16c0 0d61 bbbf

layer_one.bias f4 [10]
1.4374075 -0.014096032 -0.4474494 -0.56701833 -0.022487478 -0.6978279 -0.62932724 -0.44840443
2.3912675 0.0027680052
00000000: f8fc b73f 0bf3 66bc 1618 e5be 1d28 11bf
00000010: a937 b8bc d9a4 32bf 971b 21bf 4495 e5be
00000020: 870a 1940 6c67 353b

layer_two.weight f4 [10, 10]
-0.24052456 -0.25368547 0.1573155 -0.23522326 -0.038936317 0.15169638 -0.14635402 -0.034481436
-0.027525872 -0.07481423 -0.00032554276 -0.9479272 -0.25562492 -0.16932784 -0.6887026 -0.15274265
-0.22965886 -0.71374565 1.0120747 -0.62721664 0.121104576 0.15060943 -0.31354013 0.028045803
0.098477714 -0.029227495 -0.18638715 0.26849017 -0.16644046 -0.18047692 0.0074593965 0.86642224
0.140131 0.070001066 1.210771 -0.23982316 -0.2864152 0.83204794 -0.6165353 1.2568742
-0.23951755 0.10268249 -0.23311791 -0.15255567 0.062424302 0.1721982 0.26195338 -0.23842561
0.2893903 -0.177405 0.4988856 -1.6163514 0.004440576 0.28770688 -2.0967815 -0.1207861
0.16951181 -1.6665477 2.433187 -2.105992 0.22808108 -0.55724806 0.1013352 -0.17770852
-0.837119 0.03420338 0.09064555 -0.68057245 0.9196522 -0.7321444 0.4930025 -0.0074641556
-0.07782382 -0.2863726 -0.0728164 -0.15116164 -0.16074961 0.08380728 -0.512387 0.16437703
0.7826221 0.12869768 0.22543952 -0.1530899 0.3403347 0.116226494 -0.21068126 -0.21395148
-0.82572746 0.39710307 -1.7366565 1.8412497 0.2542986 0.051299512 1.2906629 -0.29291323
-0.094664715 1.7386086 0.3882466 0.5255294
00000000: 124c 76be 10e3 81be 5017 213e 5ede 70be
00000010: b07b 1fbd 4c56 1b3e d4dd 15be 683c 0dbd
00000020: f07d e1bc 3438 99bd 9cad aab9 5bab 72bf
00000030: 45e1 82be 4764 2dbe d04e 30bf 9268 1cbe
00000040: b12b 6bbe 09b8 36bf aa8b 813f 4591 20bf
00000050: ad05 f83d 5c39 1a3e 5588 a0be 50c0 e53c
00000060: afae c93d 806e efbc 46dc 3ebe 8b77 893e
00000070: 5e6f 2abe f1ce 38be f46d f43b d9cd 5d3f
00000080: 807e 0f3e b85c 8f3d 8bfa 9a3f 3494 75be
00000090: 03a5 92be 1801 553f 42d5 1dbf 41e1 a03f
000000a0: 1744 75be 334b d23d 76b6 6ebe 8e37 1cbe
000000b0: a0b0 7f3d ba54 303e c11e 863e d825 74be
000000c0: f72a 943e a8a9 35be ef6d ff3e 9ae4 cebf
000000d0: 4082 913b 514e 933e ab31 06c0 b45e f7bd
000000e0: 8194 2d3e 6f51 d5bf 56b9 1b40 93c8 06c0
000000f0: 168e 693e cfa7 0ebf d488 cf3d 39f9 35be
00000100: 6e4d 56bf d818 0c3d 60a4 b93d ff39 2ebf
00000110: 546e 6b3f d16d 3bbf d36a fc3e e095 f4bb
00000120: 1862 9fbd 6e9f 92be c420 95bd 1eca 1abe
00000130: 8c9b 24be 27a3 ab3d cb2b 03bf 7452 283e
00000140: ec59 483f 53c9 033e 9ed9 663e 99c3 1cbe
00000150: 5a40 ae3e 2808 ee3d d4bc 57be 1916 5bbe
00000160: e062 53bf 1851 cb3e c34a debf 12ae eb3f
00000170: 6d33 823e 701f 523d 7134 a53f b9f8 95be
00000180: 93df c1bd ba8a de3f 42c8 c63e 1889 063f

layer_two.bias f4 [10]
-0.12502155 0.7742049 -0.3805015 -0.0988473 -0.13139081 1.7318243 0.66353065 0.08704006
-0.2416116 -0.58064574
00000000: a605 00be 4b32 463f 18d1 c2be 7470 cabd
00000010: 508b 06be 6bac dd3f 25dd 293f 0f42 b23d
00000020: 0869 77be 33a5 14bf

layer_three.weight f4 [1, 10]
-0.00822103 1.8869597 0.3006321 -2.1243703 -0.2825419 4.7353387 1.7566172 -0.6953175
-1.2214596 -3.3887386
00000000: 80b1 06bc e587 f13f 73ec 993e aff5 07c0
00000010: 55a9 90be e587 9740 d5d8 e03f 5400 32bf
00000020: ca58 9cbf 18e1 58c0
