classic-data-set-load_wine/load_win_mode.pt (torch, 49924 bytes, 6 tensors)

linear_layer.0.weight f4 [100, 13]
0	0xbe7a8839	-0.24466027
1	0xbe570726	-0.2099882
2	0x3e500b64	0.20316845
3	0xbe249788	-0.1607343
4	0xbe0ac68c	-0.13552302
5	0xbd86ba68	-0.06578523
6	0xbe77ee41	-0.2421198
7	0xbc57fae0	-0.013182372
8	0xbd226ddc	-0.03965555
9	0xbd63ac4c	-0.055584237
10	0xbaab5d00	-0.0013073981
11	0xbe3ec3e9	-0.18629421
12	0xbd44f698	-0.048086733
13	0xbd075020	-0.033035398
14	0xbe8c73a2	-0.2743197
15	0xbe52c88f	-0.2058432
16	0x3e5aa85a	0.21353284
17	0xbe880669	-0.2656739
18	0xbd615c6c	-0.05501978
19	0xbe2713b8	-0.16316116
20	0x3e8d094d	0.27546158
21	0x3e510508	0.20412076
22	0x3e0bd34c	0.13654822
23	0xbe112831	-0.14175488
24	0xbe7a8f04	-0.24468619
25	0xbd31f55c	-0.043446884
26	0x3e2db1e4	0.16962391
27	0x3d04fd38	0.03246805
28	0xbe1b511c	-0.1516766
29	0xbe7ecb46	-0.2488223
30	0x3e6fe35e	0.23426577
31	0x3d63d158	0.055619568
32	0x3e41f674	0.1894167
33	0xbe77f898	-0.24215925
34	0x3d15dd40	0.036587954
35	0x3e849dcd	0.25901642
36	0xbe8a06e1	-0.26958373
37	0xbe863284	-0.26210415
38	0xbe82938c	-0.25503194
39	0xbe180431	-0.14845349
40	0xbcf360bd	-0.029709214
41	0x3e0eed66	0.13957748
42	0xbce84391	-0.02835253
43	0x3eb9693e	0.36213106
44	0x3e5a3c8e	0.21312162
45	0x3e1ba559	0.15199794
46	0xbe6be79b	-0.23037569
47	0x3de05365	0.10953406
48	0x3e8529fa	0.26008588
49	0x3e3fcea9	0.18731178
50	0xbe967931	-0.29389337
51	0xbda12bc7	-0.07869678
52	0xbe21e06e	-0.1580827
53	0xbdb1644d	-0.08661709
54	0x3dabb80c	0.083847135
55	0x3d4e6d49	0.05039719
56	0x3e2b2d4a	0.16716495
57	0xbe59f3af	-0.21284364
58	0xbddcd223	-0.10782268
59	0x3df038f3	0.11729612
60	0xbde7954d	-0.11307774
61	0x3c0a4ba8	0.008440889
62	0xbe40d656	-0.18831763
63	0x3e672ea8	0.22576392
64	0xbb3741dc	-0.002796284
65	0x3dd0c82c	0.1019443
66	0x3c74d7a0	0.014943987
67	0x3cddf9f0	0.027096719
68	0x3e86b9a3	0.26313505
69	0xbdeef8f2	-0.11668576
70	0x3e785c3a	0.24253932
71	0xbdeb63a2	-0.11493613
72	0xbc0dfd00	-0.008666277
73	0xbe33d47e	-0.17561528
74	0x3d9139f0	0.07091129
75	0xbe8b7d6d	-0.2724413
76	0x3d9e45c4	0.077281505
77	0xbe0eceab	-0.13946025
78	0x3e32028b	0.17383783
79	0x3ea6313c	0.32459438
80	0x3e408396	0.18800196
81	0xbef9b44c	-0.48770368
82	0x3e2d8c0d	0.16947956
83	0xbe3697a3	-0.17831282
84	0x3d6f99f4	0.05849643
85	0xbe2e0aac	-0.16996258
86	0x3e4970a7	0.1967188
87	0xbd0a5cb1	-0.033779804
88	0x3dac7531	0.0842079
89	0x3de94263	0.113896154
90	0xbc383ca5	-0.0112449275
91	0x3e5b5d05	0.21422203
92	0xbd909ee4	-0.07061556
93	0xbe49147c	-0.1963672
94	0x3e443069	0.19159092
95	0xbe3c5e88	-0.18395436
96	0xbcbaf476	-0.022821646
97	0x3dc3090d	0.09523211
98	0x3e797fc8	0.24365151
99	0x3e73bcf7	0.23802553
100	0xbe10fe23	-0.14159445
101	0xbdef2d6d	-0.11678586
102	0x3ea3a826	0.31964225
103	0x3c009289	0.007847437
104	0xbe738ca7	-0.23784123
105	0xbc51c574	-0.012803424
106	0xbe54f85e	-0.2079787
107	0xbe4280f0	-0.18994498
108	0xbee3a192	-0.44459206
109	0xbe7cc12e	-0.24683067
110	0xbe2c8777	-0.1684855
111	0xbd852146	-0.06500487
112	0x3d7274d5	0.05919345
113	0xbea7f2b1	-0.32802346
114	0xbdd8a658	-0.105786026
115	0x3d6a77a3	0.057243
116	0x3debd39b	0.1151497
117	0xbb9e3500	-0.0048280954
118	0xbe5c9f59	-0.21545161
119	0xbc8316c0	-0.016002059
120	0x3db75aa0	0.08952832
121	0xbe7d1346	-0.24714383
122	0xbe361d88	-0.17784703
123	0x3d4c8ba8	0.049937874
124	0x3a12d000	0.00056004524
125	0x3e53a152	0.20667008
126	0x3dac1018	0.08401507
127	0x3e18623a	0.1488122
128	0xbe573040	-0.210145
129	0xbd808232	-0.06274833
130	0xba5a61a0	-0.00083305873
131	0xbdbf79ec	-0.093494266
132	0xbd6ea672	-0.058264203
133	0x3e426b16	0.18986163
134	0xbea7387b	-0.3266028
135	0xbde3a8d1	-0.111161835
136	0xbe0a58f4	-0.13510495
137	0x3d34672d	0.04404371
138	0x3caf51c1	0.021401288
139	0xbc46cf07	-0.01213432
140	0x3e1412f7	0.1446036
141	0xbe732314	-0.2374385
142	0x3d88db27	0.06682425
143	0x3d97782b	0.07395967
144	0x3e46de6e	0.19420788
145	0xbe87a666	-0.2649414
146	0x3e4e5bb4	0.2015217
147	0x3e1b9131	0.15192105
148	0x3e360b89	0.17777838
149	0x3e15fedb	0.14648001
150	0xbe053b6a	-0.13010946
151	0xbd8c17f1	-0.06840504
152	0x3bfc591e	0.0077010533
153	0x3d891f01	0.06695367
154	0xbe87e2f1	-0.2654033
155	0xbd7fe4a7	-0.06247392
156	0xbe842748	-0.2581122
157	0xbe4d3079	-0.20038022
158	0xbdd40763	-0.103529714
159	0xbdbe3a93	-0.09288516
160	0x3d658259	0.056032512
161	0x3e53f9c7	0.20700751
162	0xbd8c89d1	-0.06862224
163	0xbd43b62e	-0.047781162
164	0x3dd9e93e	0.106401905
165	0x3cd61001	0.026130678
166	0x3e8e5ca7	0.27805063
167	0x3d8e6c67	0.0695427
168	0xbbcd5bd4	-0.0062670503
169	0xbe442432	-0.19154432
170	0x3c17f551	0.009274797
171	0x3d9e8007	0.07739263
172	0x3e0ce4b6	0.13759121
173	0xbdfeb4dd	-0.12436841
174	0xbba2ef73	-0.004972392
175	0x3e021580	0.12703514
176	0xbcb45726	-0.022014212
177	0xbd01eb4f	-0.03171855
178	0xbee34f3f	-0.44396397
179	0x3e2b05cd	0.16701432
180	0xbdb6286d	-0.08894429
181	0x3ccc98e7	0.024975253
182	0x3d930190	0.071780324
183	0x3e88cb96	0.26717824
184	0xbcfc4bf8	-0.030797943
185	0xbc1972eb	-0.0093657775
186	0x3e6cfea7	0.23144017
187	0xbe8895f2	-0.266769
188	0xbedf18c6	-0.43573588
189	0x3e3ddb77	0.1854075
190	0x3e240884	0.16018873
191	0x3f1cbe87	0.6122822
192	0x3de86109	0.11346633
193	0xbebac5a9	-0.36478928
194	0xbcea240c	-0.028581642
195	0xbe12b7ee	-0.14327976
196	0x3dfe6bd4	0.1242291
197	0x3e80e051	0.2517114
198	0xbda9c5de	-0.08289693
199	0xbe51a624	-0.20473534
200	0xbe49befe	-0.19701764
201	0xbdbdb4e8	-0.09263021
202	0x3ca85260	0.020547092
203	0x3e820181	0.25391772
204	0x3d4f6518	0.05063352
205	0xbe114ce1	-0.14189483
206	0xbce0fc30	-0.027464002
207	0xbda0b308	-0.078466475
208	0x3d8c6d98	0.06856841
209	0x3de4f994	0.11180416
210	0xbe25741a	-0.1615757
211	0x3db80a14	0.08986297
212	0x3e09a24a	0.13440815
213	0xbc8bd920	-0.017071307
214	0xbe43d07c	-0.19122499
215	0x3e3526b4	0.17690545
216	0xbe874407	-0.26419088
217	0x3e0b7604	0.13619238
218	0x3d334bf0	0.04377359
219	0xbd9c42ba	-0.076299146
220	0xbdd85792	-0.10563578
221	0x3df1cbcf	0.118064515
222	0xbe9231eb	-0.2855371
223	0xbd026a57	-0.031839695
224	0x3eb0737b	0.34463105
225	0xbda5c685	-0.08094505
226	0xbe1c5fb2	-0.1527088
227	0x3e8c2a3f	0.2737598
228	0x3e30aefe	0.17254254
229	0x3e83833f	0.2568607
230	0xbea868c2	-0.32892424
231	0xbe717c4b	-0.2358257
232	0xbc9e93cf	-0.01935759
233	0x3cd4f7e3	0.025997108
234	0x3c31aa0c	0.010843765
235	0x3ecaa5f0	0.39579725
236	0x3e18a989	0.14908423
237	0xbf18cc68	-0.596869
238	0xbee9c9bf	-0.45661733
239	0xbd8ee930	-0.06978071
240	0xbe772fcc	-0.24139327
241	0xbe391807	-0.18075572
242	0xbcdabde9	-0.026701884
243	0x3e805426	0.250642
244	0x3e2e995d	0.17050691
245	0xbe73d7ad	-0.23812743
246	0x3df2b49b	0.11850854
247	0xbe0dfa88	-0.13865101
248	0xbe11b7bc	-0.14230245
249	0x3e79fd46	0.24413022
250	0x3d0a0140	0.0336926
251	0x3e8dbca3	0.2768298
252	0xbe6c213a	-0.2305955
253	0xbdcd69d6	-0.10029952
254	0xbe711217	-0.23542057
255	0x3e624bc6	0.22099218

linear_layer.0.bias f4 [100]
0	0x3e3bdd60	0.18346167
1	0x3e72d4de	0.23714015
2	0xbd39474c	-0.04523401
3	0xbe3ba50c	-0.18324679
4	0xbe1ab759	-0.15109004
5	0x3e345cd6	0.17613539
6	0x3d7cd972	0.06173081
7	0x3cbf2b00	0.023335934
8	0xbe8bd900	-0.27313995
9	0x3e18f982	0.1493893
10	0x3e38211f	0.17981385
11	0x3cea3bb6	0.028592926
12	0xbd498b04	-0.04920484
13	0xbe010520	-0.12599611
14	0xbbf7405c	-0.007545514
15	0x3c61bf80	0.013778567
16	0x3da03b68	0.07823831
17	0x3ab07b55	0.001346449
18	0x3e796668	0.24355471
19	0x3e371240	0.17878056
20	0x3d803d50	0.062616944
21	0xbe7c2409	-0.24623121
22	0xbe12cc6b	-0.14335792
23	0x3de75fbf	0.11297559
24	0xbe37b1bf	-0.17938899
25	0x3d9e5bc8	0.0773235
26	0x3da1af88	0.07894808
27	0xbe328e52	-0.17437103
28	0x3d4b4327	0.04962459
29	0xbd12ed90	-0.03587109
30	0x3e63f262	0.2226043
31	0xbd578281	-0.052614693
32	0x3e77d9d6	0.24204192
33	0x3e76c102	0.24097064
34	0xbddfac74	-0.10921565
35	0x3d3e9ee8	0.046538264
36	0xbd9b4562	-0.07581593
37	0x3e636cb0	0.2220943
38	0x3e082acc	0.13297576
39	0x3a474e00	0.00076028705
40	0x3e2bc124	0.16772896
41	0xbe640ac1	-0.22269727
42	0xbd86ad68	-0.06576043
43	0x3d67e538	0.056615084
44	0xbe814cc7	-0.2525389
45	0x3e783bbe	0.2424154
46	0x3c667a8f	0.014067306
47	0x3e7f8bcb	0.2495567
48	0xbda6f74f	-0.08152639
49	0x3c874810	0.016513854
50	0xbd9ca8fa	-0.07649417
51	0xbdd65702	-0.10465814
52	0xbdd27b18	-0.102773845
53	0x3e446c5c	0.19181961
54	0x3e7da24c	0.24768943
55	0x3da373a8	0.07981044
56	0x3e1e9686	0.15487108
57	0x3e02a680	0.12758827
58	0xbba4586a	-0.0050154226
59	0xbe5c7a3e	-0.21531007
60	0x3d88a2a1	0.06671644
61	0xbdbfd90c	-0.0936757
62	0x3dd97ba0	0.10619283
63	0xbe3a0652	-0.18166474
64	0xbc9a6df0	-0.01885125
65	0xbdcff5aa	-0.101542786
66	0xbe835db8	-0.2565744
67	0xbe8347fb	-0.25640854
68	0x3e7f9809	0.2496034
69	0xb99e3000	-0.0003017187
70	0xbe64f14e	-0.22357675
71	0x3d3a4732	0.045478053
72	0xbccf9566	-0.025339793
73	0x3e69f832	0.22848585
74	0x3e85d4d5	0.2613894
75	0xbd91ff40	-0.07128763
76	0xbe23818c	-0.15967387
77	0xbe22c1c2	-0.15894225
78	0xbda2d22d	-0.07950244
79	0xbe1be67b	-0.1522464
80	0x3e6da334	0.23206788
81	0xbdd91d46	-0.106012866
82	0x3e100a9f	0.14066552
83	0x3dcdc9a8	0.100482285
84	0x3d809c96	0.062798664
85	0x3e168024	0.1469732
86	0x3e707f06	0.23485956
87	0x3df1addc	0.11800739
88	0x3df9f0a4	0.12204102
89	0xbe6e4c26	-0.23271236
90	0xbca367c8	-0.019946948
91	0x3ca8f0e5	0.02062268
92	0x3e5e6c5a	0.2172102
93	0x3ded1c20	0.1157763
94	0x3e577614	0.21041137
95	0x3e62cefa	0.22149268
96	0xbe03e724	-0.12881142
97	0x3cf50c77	0.02991317
98	0x3e828a48	0.25496125
99	0x3dc24239	0.09485287

linear_layer.2.weight f4 [100, 100]
0	0x3d67977a	0.056540944
1	0x3d267dd6	0.04064735
2	0xbd009404	-0.03139116
3	0x3cc39ea8	0.023879364
4	0xbd8d820d	-0.06909571
5	0x3dbcf0c1	0.09225608
6	0x3bbb7ce0	0.0057216734
7	0x3d9eb475	0.07749263
8	0xbd8ff78b	-0.07029637
9	0xbdbc2423	-0.0918658
10	0x3c442c90	0.011973515
11	0xbc51e958	-0.012811981
12	0xbd25aec3	-0.04044987
13	0x3d569c4a	0.052395143
14	0xbd8539ee	-0.0650519
15	0x3db376a9	0.08762867
16	0xbdc7edaa	-0.09762128
17	0x3ca8008c	0.020508073
18	0xbd6f7e13	-0.058469843
19	0x3cb1b7d4	0.021694101
20	0x3dca418d	0.09875784
21	0xbc44a768	-0.012002803
22	0x3cbe7a80	0.023251772
23	0xbd21318a	-0.039353885
24	0xbd522f33	-0.051314544
25	0xbdaef0c5	-0.08542017
26	0x3d6c6bd2	0.057720013
27	0xba919140	-0.001110591
28	0x3d0dd7b2	0.03462953
29	0xbd9d82a8	-0.07690936
30	0xbdaa8240	-0.083256245
31	0xbdba38d3	-0.090928696
32	0xbd6c0bd3	-0.057628464
33	0xbc550858	-0.013002478
34	0xbc773610	-0.015088573
35	0x3d341a3a	0.043970324
36	0xbd44d083	-0.048050415
37	0x3dc78de5	0.09743861
38	0xbd3aa857	-0.045570698
39	0xbdc09807	-0.09403997
40	0x3d9aec6f	0.075646274
41	0xbd839e78	-0.0642671
42	0x3c1c24e8	0.0095302835
43	0xbc1e2df0	-0.009654507
44	0xbcaae198	-0.020859525
45	0x3887e000	6.479025e-05
46	0xbdc96485	-0.09833626
47	0x3db829d1	0.08992351
48	0xbd84f3a5	-0.06491784
49	0x3d79bc22	0.060970433
50	0xbd723457	-0.059131946
51	0xbcc9b958	-0.024624512
52	0xbb1afdc0	-0.0023649782
53	0xbd217117	-0.03941449
54	0xbd317363	-0.043322932
55	0xbdac62f6	-0.08417313
56	0xbd8ca9f6	-0.06868355
57	0xbb99bf00	-0.0046919584
58	0xbcef78b8	-0.029232368
59	0xbc661710	-0.0140435845
60	0x3cd0fa5c	0.025510006
61	0xbc520b30	-0.01282005
62	0xbdc1df20	-0.09466386
63	0xbd16a496	-0.036778055
64	0x3cfabdcc	0.03060808
65	0x3d136a52	0.035990067
66	0x3d46357e	0.048390858
67	0x3bb57580	0.0055376887
68	0x3d8c0473	0.06836786
69	0xbd8c259c	-0.06843111
70	0xbdabde36	-0.08391993
71	0xbcda6b74	-0.026662566
72	0x3a30c980	0.0006743893
73	0x3d94b30d	0.07260714
74	0xbd6c364a	-0.05766896
75	0xbd8f6ed5	-0.070035614
76	0xbb314ca0	-0.0027053729
77	0x3cd05284	0.025429972
78	0xbdbacb1d	-0.09120772
79	0xbd251cc7	-0.040310647
80	0xbda0e156	-0.078554794
81	0x3cbf70c0	0.023369193
82	0x3c18d6a8	0.009328522
83	0xbdb61dfd	-0.088924386
84	0xbd885fa8	-0.0665887
85	0x3b978630	0.0046241507
86	0xbcd9148c	-0.026499055
87	0xbd9e67ea	-0.07734664
88	0xbcf83d4c	-0.030302666
89	0xbdbc15af	-0.09183823
90	0xbc3b1510	-0.011418596
91	0xbc3ef928	-0.011656083
92	0x3babc3b0	0.0052418336
93	0x3c0b28b0	0.008493587
94	0xbc8eb1cc	-0.017418765
95	0x3da3704f	0.079804055
96	0xbd12a696	-0.0358034
97	0x3d391a7a	0.045191266
98	0x3d1aa4fa	0.03775499
99	0xbc48d258	-0.012257181
100	0xbd9615e5	-0.07328395
101	0xbdac90e2	-0.08426072
102	0x3ce2c29c	0.027680688
103	0x3cd978d5	0.026546875
104	0x3da54d8a	0.0807143
105	0xbd354eb7	-0.04426452
106	0x3dc44c60	0.0958488
107	0x3dc133cf	0.0943371
108	0x3a1b6752	0.00059281767
109	0xbd1f9e17	-0.038969126
110	0xbd66da89	-0.056360755
111	0xbdb26ade	-0.087117895
112	0x3d80ed1f	0.06295227
113	0x3c85d76c	0.016338073
114	0x3c48eb61	0.01226315
115	0x3d8395a9	0.0642503
116	0xbd2df267	-0.0424675
117	0xbc9766c3	-0.018481618
118	0x3dc1a349	0.09454972
119	0xbd9de19a	-0.07709046
120	0x3db40fb7	0.0879206
121	0x3d54fe6a	0.05200044
122	0xbca40ea1	-0.020026507
123	0xbdb5d027	-0.088775925
124	0x3d04c87d	0.032417763
125	0x3d436c46	0.04771068
126	0xbae36cd8	-0.0017351164
127	0x3d430116	0.047608458
128	0x3c3ff56f	0.011716231
129	0x3dc998c9	0.098435946
130	0x3d5b9947	0.053612974
131	0x3cb4ea8b	0.022084495
132	0xbdcab715	-0.098982014
133	0x3da6ad4f	0.08138525
134	0x3dab1001	0.08352662
135	0xbce31278	-0.027718768
136	0xbc002028	-0.007820167
137	0xbb7f5340	-0.0038959533
138	0xbbc81750	-0.0061062947
139	0x3d5ea9c2	0.054361112
140	0x3c5d74f0	0.01351665
141	0xbdb21d2d	-0.08696971
142	0x3caa2073	0.020767426
143	0xbd7b9950	-0.061425507
144	0x3d996fd7	0.07492035
145	0x3d324ac6	0.04352834
146	0xbdaa3a94	-0.08311954
147	0x3d333526	0.04375186
148	0xbcbecec6	-0.023291957
149	0xbd4e02ea	-0.050295748
150	0x3daf7e13	0.085689686
151	0x3d476c46	0.048687242
152	0x3d95c2bb	0.073125325
153	0xbd8d030b	-0.06885346
154	0xbdb231a6	-0.08700876
155	0xbdb4111b	-0.08792325
156	0x3d846909	0.06465346
157	0x3b8efe9d	0.0043638484
158	0xbd93a7fa	-0.07209773
159	0x3d3022a3	0.043001782
160	0x3a6ad01f	0.0008957404
161	0xbd466e9b	-0.048445325
162	0x3b60ed40	0.00343211
163	0xbd54c441	-0.051944975
164	0xbcefd8e8	-0.029278234
165	0x3d93c9ab	0.072161995
166	0x3c675d98	0.014121436
167	0xbd986872	-0.07441796
168	0xbca701bc	-0.02038657
169	0xbca378a8	-0.019954994
170	0xbdb6e3fd	-0.08930204
171	0xbdbd5a1f	-0.09245705
172	0xbccc3d23	-0.024931496
173	0xbd96ba23	-0.073597215
174	0xbd7a6193	-0.06112821
175	0x3cc56614	0.024096526
176	0x3ced1394	0.02894
177	0xbd3970e0	-0.04527366
178	0x3d5864c9	0.05283049
179	0x3d4e582a	0.05037705
180	0xbd2d7862	-0.042351134
181	0xbd12143a	-0.03566382
182	0x3cc1c948	0.023655549
183	0x3ca77873	0.020443177
184	0x3d53c483	0.05170108
185	0x3d6fabf8	0.05851361
186	0xbbdb08b0	-0.0066843852
187	0x3d0811fe	0.033220284
188	0xbd6bb2e3	-0.057543647
189	0xbc50ed80	-0.012751937
190	0x3d80d282	0.06290151
191	0xbdc03a76	-0.093861505
192	0xbd86b806	-0.065780684
193	0xbd8db939	-0.06920094
194	0x3da93704	0.082624465
195	0x3bc1c6ab	0.0059135756
196	0x3d671956	0.056420647
197	0xbd824c74	-0.063622385
198	0xbd49f703	-0.049307834
199	0x3db11815	0.086471714
200	0xbdcbf9f7	-0.099597864
201	0xbdc797af	-0.09745728
202	0xbd8925d6	-0.0669667
203	0x3a84a620	0.001012031
204	0xbdaa7575	-0.083231844
205	0x3c97ada0	0.018515408
206	0x3d882416	0.06647508
207	0xbd07b3c1	-0.03313041
208	0xbc7ed996	-0.015554806
209	0xbdb43c5a	-0.08800574
210	0xbcf6d467	-0.030130578
211	0x3c078298	0.008270882
212	0x3ca78a58	0.02045171
213	0xbcddad85	-0.02706028
214	0xbd1d2787	-0.038367774
215	0xbd569783	-0.052390587
216	0x3d8d36ad	0.06895194
217	0xbd87f5a7	-0.06638651
218	0x3c4e1a15	0.012579461
219	0xbc8ffd68	-0.017576888
220	0xbd24b337	-0.040209975
221	0xbb8d8ab0	-0.0043195114
222	0x3dbca4dc	0.09211132
223	0x3dbc57ea	0.09196456
224	0x3c0cf74f	0.008603885
225	0xbca4c558	-0.020113632
226	0xbd8edb09	-0.069753714
227	0xbd3e83e7	-0.04651251
228	0xbcfa1abe	-0.03053033
229	0x3d97f7b7	0.07420295
230	0x3ccec914	0.025242366
231	0xbdaea8fe	-0.085283265
232	0xbcd293a8	-0.025705174
233	0xbdb0ecc3	-0.08638909
234	0x3de0b6a9	0.1097234
235	0x3c17b030	0.009258315
236	0xbccfec6c	-0.02538129
237	0x3d243e66	0.04009857
238	0xbdbffdb0	-0.09374559
239	0xbd073926	-0.033013485
240	0x3c19b1e8	0.009380795
241	0x3d93c7b7	0.07215827
242	0x3d8a1fce	0.067443475
243	0xbb5b1260	-0.00334277
244	0xbdead104	-0.11465648
245	0x3c975534	0.018473245
246	0xbd4fc37e	-0.050723545
247	0x3d926a71	0.07149208
248	0xbd043a84	-0.032282367
249	0xbcdef1ac	-0.027214848
250	0xbc735610	-0.014852062
251	0x3dbbfb92	0.091788426
252	0x3d339e5a	0.043852188
253	0xbd8d3bcd	-0.06896172
254	0x3c9944c2	0.018709544
255	0x3d023d2a	0.03179661

linear_layer.2.bias f4 [100]
0	0xbb143e60	-0.0022620186
1	0xbd9194ef	-0.07108485
2	0xbdb9e5ad	-0.0907701
3	0xbd4b5739	-0.04964373
4	0xbdcbb293	-0.0994617
5	0x3d149f3d	0.036284674
6	0xbd8a06c2	-0.0673957
7	0x3db5c7e4	0.08876017
8	0x3d63dd12	0.05563075
9	0x3dbfd879	0.09367461
10	0xbdaddae2	-0.08489014
11	0x3d627efa	0.055296876
12	0x3dce952b	0.10087045
13	0x3c1b9254	0.009495337
14	0xbc09358d	-0.008374584
15	0x3d49093f	0.049081083
16	0x3cdaf9e3	0.026730483
17	0xbd3ec08f	-0.046570357
18	0xbdc8b2b9	-0.09799714
19	0xbd8386e8	-0.06422216
20	0x3d53d982	0.051721103
21	0x3d9866a5	0.07441453
22	0x3be31401	0.006929875
23	0xbd9400c6	-0.0722671
24	0x3d3fc226	0.046816014
25	0xbca21d8c	-0.01978948
26	0x3d0b5f6c	0.03402655
27	0xbd9b62a5	-0.07587174
28	0x3d5f7b18	0.05456075
29	0xbd3cd3a2	-0.046100266
30	0x3c96cfb8	0.018409595
31	0x3c8c64ca	0.017137904
32	0x3dc98b24	0.09840992
33	0x3df30b98	0.11867446
34	0xbda93b60	-0.08263278
35	0x3d4b852e	0.049687557
36	0xbdb8b121	-0.0901816
37	0xbd484c50	-0.048900902
38	0x3d1e481c	0.038642988
39	0xbd8cd7a9	-0.068770714
40	0x3dafa592	0.08576502
41	0x3d1b1ed6	0.037871204
42	0x3c1bad0e	0.009501709
43	0x3d521bd0	0.051296055
44	0xbd9ed213	-0.07754912
45	0x3c856369	0.016282754
46	0x3d0bd6d5	0.034140427
47	0xbd3d8779	-0.046271775
48	0xbcfebc94	-0.03109578
49	0x3d23a59d	0.039952863
50	0x3daccbbd	0.084372975
51	0xbd5b0383	-0.053470146
52	0x3d776466	0.06039848
53	0x3d3e70cf	0.0464943
54	0xbd6fc7aa	-0.058540024
55	0xbda2d71b	-0.07951184
56	0xbc4a109f	-0.012333064
57	0x3d707b7b	0.05871151
58	0xbdaa0bfa	-0.083030656
59	0xbd8f424c	-0.06995067
60	0x3d9400ae	0.07226692
61	0xbd6d08df	-0.05786979
62	0xbd8fa2ec	-0.07013497
63	0xbb0bc56f	-0.0021327396
64	0x3df43793	0.119246624
65	0x3d8666f6	0.06562607
66	0x3d53620d	0.05160718
67	0x3c30aebf	0.01078385
68	0xbd690b07	-0.056895282
69	0xbda3ca48	-0.079975665
70	0x3dcdaab3	0.10042324
71	0x3d283b07	0.041071918
72	0x3cd6156f	0.026133267
73	0xbd1865bc	-0.037206396
74	0xbdba8244	-0.091068774
75	0x3c667380	0.014065623
76	0xbc85a52e	-0.016314115
77	0xbc18831c	-0.009308603
78	0x3d10457b	0.03522251
79	0xbd7064eb	-0.058689993
80	0xbd7ea87b	-0.062172394
81	0xbd5a22a1	-0.05325568
82	0x3d1f0262	0.03882063
83	0xbda00fd9	-0.07815523
84	0x3de0379f	0.10948109
85	0xbdd5aea7	-0.10433703
86	0xbd7c646b	-0.061619204
87	0x3cd270d6	0.02568857
88	0xbdc6aa65	-0.09700469
89	0xbd63a374	-0.055575803
90	0x3d5355f8	0.051595658
91	0xbd8a9adf	-0.067678206
92	0x3d92750b	0.071512304
93	0xbd655e86	-0.055998348
94	0xbd41b33f	-0.047290083
95	0x3bfe38c6	0.0077582328
96	0x3c1479a9	0.009062209
97	0x3db98ec0	0.090604305
98	0x3ce03068	0.027366832
99	0x3cbf1e5b	0.023329904

linear_layer.4.weight f4 [3, 100]
0	0xbd54bdda	-0.05193887
1	0x3ddc4ad4	0.1075646
2	0xbc6337f4	-0.013868321
3	0x3d7449f7	0.05964085
4	0xbe47d139	-0.19513406
5	0x3d3a48d8	0.045479625
6	0x3da47081	0.08029271
7	0xbbb644d9	-0.0055624065
8	0x3dcc6adf	0.099813215
9	0xbd24f9af	-0.04027718
10	0xbd620e7e	-0.055189602
11	0x3d385a69	0.045008097
12	0x3d0603b0	0.03271836
13	0xbd78e1c0	-0.060762167
14	0xbd002401	-0.031284336
15	0x3cef4aa7	0.029210402
16	0xbc09906b	-0.008396248
17	0xbd307bfc	-0.04308699
18	0x3d941966	0.07231407
19	0x3ce44161	0.027863206
20	0xbd275be8	-0.040859133
21	0xbd9991dd	-0.07498524
22	0x3db0e06a	0.086365536
23	0x3d833bed	0.06407914
24	0xbd83e78d	-0.06440649
25	0xbd98ce20	-0.0746119
26	0xbd134100	-0.03595066
27	0x3b01b785	0.0019793224
28	0x3b8e4e0c	0.0043428
29	0xbd781073	-0.060562562
30	0xbd997095	-0.074921764
31	0x3c956707	0.018237604
32	0xbb4978a7	-0.003074208
33	0xbe969506	-0.2941057
34	0x3d2f8c29	0.042858277
35	0xbc86734c	-0.0164124
36	0xbd5e0108	-0.054200202
37	0xbd788100	-0.0606699
38	0x3db6e345	0.08930067
39	0x3d9e27c6	0.0772243
40	0x3c3387e3	0.010957691
41	0x3ce6d334	0.028176881
42	0xbdac751d	-0.08420775
43	0x3d730418	0.059330076
44	0xbe97ddb1	-0.29661325
45	0x3b005225	0.0019580212
46	0xb9ca557e	-0.0003859214
47	0xbd41e466	-0.04733696
48	0xbd9efe78	-0.0776338
49	0xbd461324	-0.048358098
50	0x3cda0074	0.026611544
51	0x3ecbcad1	0.39803174
52	0xbd8e9e63	-0.069638036
53	0x3deb73ca	0.114966944
54	0xbd47191d	-0.048607934
55	0x3d9a6a27	0.07539778
56	0x3cbfca01	0.023411753
57	0xbea136da	-0.3148716
58	0xbdef8728	-0.11695701
59	0x3d0153ab	0.031573933
60	0x3d61fee8	0.05517474
61	0x3ce8b210	0.02840522
62	0x3cdb371b	0.026759675
63	0xbc418584	-0.011811618
64	0xbd87e91c	-0.06636259
65	0x3c8d4be8	0.017248109
66	0xbda259a3	-0.07927253
67	0x3d91d839	0.07121319
68	0xbc24b15f	-0.010052054
69	0xbdb7f04c	-0.0898138
70	0xbe2b95b7	-0.1675633
71	0x3cc27b2a	0.02374037
72	0xbd9e64f3	-0.07734098
73	0xbd282299	-0.04104862
74	0xbbc5503c	-0.0060215276
75	0xbd2d5c7a	-0.04232452
76	0x3da53ac6	0.08067851
77	0x3ca3f8ee	0.02001616
78	0xbdb6de5f	-0.08929133
79	0xbd9e2913	-0.07722678
80	0xbd98a8f6	-0.07454102
81	0x3e0ada47	0.13559829
82	0xbcc40908	-0.023930088
83	0x3dafb3ac	0.085791916
84	0xbc037a24	-0.008024726
85	0x3d995042	0.07486011
86	0x3a8a15fc	0.0010535116
87	0x3dab65b6	0.08369009
88	0xbdb42280	-0.08795643
89	0x3d902a4a	0.07039316
90	0xbd8e30d4	-0.06942907
91	0xbce789bb	-0.028263917
92	0xbe4af895	-0.19821389
93	0x3de23c8f	0.11046707
94	0xbcd84552	-0.026400242
95	0x3d10df7c	0.03536938
96	0xbd3c579e	-0.045981996
97	0x3d4a211a	0.049347974
98	0xbe241b48	-0.16026032
99	0x3d68c119	0.056824777
100	0xbdc31d2a	-0.09527047
101	0xbb40ac28	-0.0029399488
102	0x3cdb8c20	0.026800215
103	0x3bb755ab	0.005594929
104	0xbd9fcb27	-0.0780242
105	0x3e085ad3	0.13315897
106	0xbd7f933c	-0.062396273
107	0x3e18d1a0	0.14923716
108	0x3bd605c2	0.006531448
109	0xbdafec04	-0.08589938
110	0xbd4a88e6	-0.049446963
111	0xbd855e16	-0.06512086
112	0x3e595bf6	0.21226487
113	0xbdb330e9	-0.08749563
114	0x3b6dc902	0.003628314
115	0xbcbac865	-0.022800634
116	0xbcbe490e	-0.023228195
117	0xbc6c6537	-0.014428428
118	0xbdb81a84	-0.089894325
119	0xbdad8ec5	-0.08474497
120	0x3ac89cb7	0.0015305494
121	0x3ca40050	0.02001968
122	0x3cf23ccf	0.029570011
123	0xbd873298	-0.06601447
124	0xbd044707	-0.0322943
125	0x3d5ffbe6	0.05468359
126	0x3d63b7cf	0.055595215
127	0xbdcef921	-0.10106111
128	0x3d532ef9	0.05155847
129	0x3b0ba5da	0.0021308572
130	0xbbb29fe0	-0.0054511875
131	0xbe23dc28	-0.16001952
132	0x3d62c7f1	0.05536646
133	0x3e906553	0.28202304
134	0x3ce46637	0.027880771
135	0x3d3418d6	0.043968998
136	0xbe2df337	-0.1698731
137	0x3dcb7e8f	0.099362485
138	0xbc9860da	-0.01860087
139	0x3bd606f8	0.0065315925
140	0x3d6f04c5	0.058354158
141	0xbd1208c6	-0.0356529
142	0xbd3e9d3d	-0.046536673
143	0xbe037594	-0.12837821
144	0x3db96ef5	0.090543665
145	0x3d7ba950	0.061440766
146	0xbe0af0f7	-0.13568483
147	0xbda51c60	-0.08062053
148	0x3a9c4800	0.0011923313
149	0xbd1e4168	-0.038636595
150	0xbb47f1c1	-0.0030509087
151	0x383b925a	4.4720575e-05
152	0x3d88b629	0.06675369
153	0x3c268deb	0.010165672
154	0x3d27d4ce	0.04097443
155	0x3c9639b8	0.01833807
156	0xbd77175d	-0.060325015
157	0x3d3b0464	0.045658484
158	0xbd382814	-0.044960096
159	0xbc266d95	-0.010157962
160	0xbd1e919a	-0.038713075
161	0x3bb5f914	0.005553374
162	0x3e060b42	0.13090232
163	0x3d3a1798	0.045432657
164	0x3eb36691	0.3503919
165	0xbdbe1e18	-0.09283084
166	0xbd92038f	-0.07129585
167	0xbd793a0c	-0.060846373
168	0xbdc647e8	-0.09681684
169	0xbd94d226	-0.07266645
170	0x3ea4568d	0.32097283
171	0x3e03d98c	0.12875956
172	0xbcefb8c5	-0.02926291
173	0x3d0163b5	0.03158923
174	0x3ddfd1ee	0.10928713
175	0x3daa04e6	0.083017156
176	0x3c32b943	0.010908428
177	0xbd19bf5e	-0.037536018
178	0x3e9eab54	0.30990088
179	0xbd955a17	-0.07292574
180	0xbc070abb	-0.008242304
181	0xbcd9f0d7	-0.0266041
182	0xbb141240	-0.0022593886
183	0xbe048dc1	-0.129447
184	0x3e03ca95	0.12870248
185	0xbd31dfb3	-0.043426227
186	0x3d79848c	0.060917422
187	0xbe1cc2b2	-0.15308645
188	0x3c9be11b	0.019028237
189	0xbc782b58	-0.015147053
190	0x3b86a2ae	0.0041087484
191	0x3db8b982	0.09019758
192	0x3d5fdfba	0.05465672
193	0xbdc30ef6	-0.09524338
194	0xbdc1e347	-0.09467178
195	0xbd79cd0f	-0.060986575
196	0xbd8ddbd1	-0.06926692
197	0x3bcd8d05	0.0062729144
198	0x3c9b5c12	0.018964801
199	0x3d83abd6	0.064292595
200	0x3da644ff	0.08118629
201	0xbd185651	-0.037191693
202	0xbd8d9eb3	-0.06915035
203	0xbd946bd5	-0.0724713
204	0x3dc6d4d8	0.097085655
205	0xbdadcd45	-0.08486418
206	0x3c91e516	0.017809432
207	0xbde019c1	-0.10942412
208	0xbd0fefa7	-0.03514066
209	0xbcb8ed8c	-0.022574209
210	0xbdd0779b	-0.10179063
211	0x3d54a4de	0.051915042
212	0xbdc402fb	-0.09570881
213	0x3d9e8dee	0.07741915
214	0x3d2eedf5	0.042707402
215	0xbd84e4a2	-0.06488921
216	0xbc747581	-0.014920593
217	0x3dbeb3b8	0.093116224
218	0xbdb53a26	-0.088489816
219	0x3cc4cccc	0.024023436
220	0xbdd164f3	-0.10224333
221	0x3d284e4c	0.041090295
222	0xbd13f5e8	-0.036123186
223	0x3da1b4be	0.07895802
224	0x3d265801	0.04061127
225	0x3b7fe140	0.0039044172
226	0xbc855b38	-0.016278848
227	0x3d9d617c	0.07684609
228	0xbcf70aec	-0.030156575
229	0x3c01c307	0.007920033
230	0x3da85b4f	0.08220541
231	0xbced6bbb	-0.028982034
232	0x3cab04e8	0.020876363
233	0x3c01a083	0.007911804
234	0x3d1ef419	0.03880701
235	0x3d0d9766	0.034568213
236	0x3e02cc51	0.12773253
237	0xbd947793	-0.072493695
238	0xbd57422f	-0.052553352
239	0xbd86e734	-0.06587067
240	0x3d9202d4	0.07129446
241	0xbd1c603d	-0.038177717
242	0x3d3b7e77	0.045774903
243	0x3e1a2fea	0.1505734
244	0x3ea34ce8	0.31894612
245	0x3b92a823	0.00447561
246	0x3dc12868	0.09431535
247	0xbd09267f	-0.03348398
248	0x3dc8b195	0.09799496
249	0x3c96ec2f	0.018423168
250	0x3d9c2e15	0.07625977
251	0xbe6b889d	-0.23001333
252	0x3dc67f21	0.09692217
253	0xbd3e26bc	-0.04642366
254	0xbd0876f0	-0.033316553
255	0x3c88bc48	0.016691342

linear_layer.4.bias f4 [3]
0	0xbe893237	-0.26796123
1	0x3ea402bd	0.3203334
2	0xbd3888cd	-0.04505234
